output/fpga_ready_cifar5_90acc.pth (torch, 425601 bytes, 20 tensors)

features.0.weight f4 [32, 3, 3, 3]
000000 2b 28 73 be 66 7d 81 be 65 86 67 bd de e9 80 be
       -0.23745792 -0.25290984 -0.056524653 -0.25178427
000010 3e f3 80 3d c7 05 6f be 6b 2b 28 3e 7f ee a3 3e
       0.06296395 -0.23342048 0.16422813 0.32017896
000020 ea 83 75 3e 98 00 f8 3d fc 13 f6 bc 53 6b 24 be
       0.23976102 0.12109488 -0.030038826 -0.16056566
000030 62 f0 9d be e5 bb 2f be 71 6d 8e be f2 1d 12 bc
       -0.3084746 -0.1716152 -0.27817872 -0.008918272
000040 4d 19 5a 3e 9b 4f 05 3e 02 85 0e 3c 0c 3f 38 3c
       0.21298714 0.13018648 0.008698704 0.0112455
000050 75 97 13 3e bb 1f ca 3c 71 95 15 3e 87 62 14 3c
       0.14413245 0.024673333 0.14607789 0.009056694
000060 0b fd 07 3e 7c 40 29 3e 3a ba 7b bc bd 53 c0 bd
       0.13280122 0.16528505 -0.015364224 -0.09390972
000070 b4 66 39 3d ea 7a 57 bc 22 ab 83 3e ca cc 23 3e
       0.04526396 -0.013151864 0.257165 0.1599609
000080 c9 23 94 bc 66 03 56 be ac b9 22 3d 5a ce 29 be
       -0.01808347 -0.20899734 0.03972785 -0.16582623
000090 27 5e 3e 3e 32 bf dc bd b4 0f 1c 3e 73 a4 9d 3e
       0.18590604 -0.10778655 0.15240365 0.30789527
0000a0 c5 23 87 3d a3 ce 14 b9 3a e4 99 be 09 55 6a be
       0.06598619 -0.00014191358 -0.30056936 -0.22884001
0000b0 d6 41 35 be cb 6b b4 bd 0d 8f 5f be cf cc 4f 3e
       -0.17700896 -0.088096224 -0.21831913 0.20292972
0000c0 d1 ee 97 3e 41 cc 5b 3e b0 94 c0 3d 52 a4 05 3d
       0.2967439 0.21464635 0.0940336 0.03262741
0000d0 da d3 88 be b5 55 34 be 2b 0a 4c be e4 93 10 3e
       -0.2672413 -0.1761082 -0.19925754 0.14118916
0000e0 75 1d 9c bd 02 fa 83 bd c2 3b 0f 3e d0 ee 82 bd
       -0.07622806 -0.064441696 0.1398764 -0.06393206
0000f0 e5 49 07 be 19 57 2a be 62 d3 80 3e ed 3e 87 3d
       -0.13211782 -0.16634788 0.25161272 0.06603799
000100 16 fc a2 3e 07 8c 70 3d 0c 85 89 be dc ff 03 be
       0.3183295 0.05872729 -0.2685932 -0.12890571
000110 ea 34 85 be e0 a0 a0 bd f3 08 5a be 86 49 2e 3e
       -0.26016933 -0.078431845 -0.21292476 0.17020234
000120 92 21 79 bd b4 7b a5 3e b6 84 ea bd 33 20 ff bd
       -0.06082303 0.3232094 -0.11451094 -0.124573134
000130 02 cf 87 be 77 e9 a1 be 5c ad 22 3e a5 ca c0 bc
       -0.26525122 -0.31623432 0.15886444 -0.023534128
000140 e8 56 56 3e 53 b9 1f 3e 9a 5c a2 be dc a4 44 3e
       0.2093159 0.1559804 -0.31711274 0.19203514
000150 38 9d 68 bd 2d 0f 69 be 6b 04 35 3e b1 27 bb bd
       -0.05679056 -0.22759695 0.17677467 -0.0913843
000160 e6 3a 57 3c ea 48 06 3e fa ca e9 bb 3e 33 8a be
       0.013136601 0.13113752 -0.0071347924 -0.2699222
000170 02 e9 38 3e 12 09 f8 3c 7a 01 56 bd b5 62 d5 3d
       0.18057635 0.030277763 -0.052247502 0.104192175
000180 a4 99 06 3e c0 39 d7 bd 79 47 15 3e e2 20 4a 3e
       0.13144547 -0.10509062 0.14578046 0.19739106
000190 7d 43 44 be aa a1 3b 3e 06 e0 4c 3e a3 9a a6 be
       -0.1916637 0.18323389 0.20007333 -0.32539853
0001a0 dd 86 80 3d ad c4 03 3d 89 2c 10 bd f6 77 d4 bd
       0.06275723 0.032169987 -0.035198722 -0.10374443
0001b0 7c 17 ae 3d 5d 6e a2 be e2 5c 34 3e 2b a5 ab 3d
       0.08500573 -0.31724826 0.17613557 0.08381113
0001c0 18 15 75 3e 10 ee 0a 3e 9f b7 50 be 00 49 9d be
       0.23933828 0.13567376 -0.20382546 -0.30719757
0001d0 b8 3c 35 3e 12 57 50 be 68 46 53 be 25 19 9b 3d
       0.17698944 -0.20345715 -0.20632327 0.07573155
0001e0 dc 60 74 3e 7c 4d ec 3d 93 42 d4 3a 4a d9 30 be
       0.23865074 0.115382165 0.0016194157 -0.17270389
0001f0 2c d1 00 bd 4a 17 fa bc c3 31 02 3e 39 25 a0 be
       -0.03144948 -0.030528683 0.12714295 -0.312784
000200 19 cb 22 3c d8 8e 14 bd 15 04 7e 3e 00 4f 7a 3e
       0.009936118 -0.03626904 0.24806245 0.24444199
000210 ca fc 2b 3e 17 e9 9b be cc 33 14 3d fa 0e 58 bd
       0.1679565 -0.3045127 0.03618221 -0.052748658
000220 2e 06 13 3d 43 ee 68 be 9f e2 fe 3d 08 8c 6d 3e
       0.035894565 -0.2274714 0.12445568 0.23197949
000230 81 e8 cc 3d cd d3 d8 bb fb 44 4c 3e eb 91 9f 3e
       0.10005284 -0.0066170455 0.19948189 0.31166014
000240 8b 6c c6 3d fa c5 52 bd 47 6d dd bd 63 e7 a8 3d
       0.09688672 -0.051458336 -0.108118586 0.082472585
000250 ca 37 b6 3c 8d a5 48 3e 7f c6 87 be ac b1 72 bd
       0.0222434 0.19594403 -0.26518628 -0.059251472
000260 e8 e9 59 3c 4a 74 56 3e c1 ac 59 3e 2d 8c c0 3d
       0.0133003965 0.20942798 0.21257307 0.094017364
000270 78 d9 77 be f3 9a 18 3e f6 d9 0e 3e 0b 57 59 be
       -0.24204051 0.14902858 0.13950333 -0.2122461
000280 08 e7 8d be 5e 8a 4b be cb fe 84 bd b2 1b da 3d
       -0.27715325 -0.19877002 -0.064939104 0.10649814
000290 43 52 8e 3d b8 ee 51 3d 77 7d c8 be 73 7e 88 bd
       0.06949284 0.05125305 -0.39158222 -0.06664743
0002a0 a4 88 80 3e 19 97 14 3e 4e 8a a0 3c 2b 9b e2 bd
       0.2510425 0.14510764 0.019597199 -0.11064752
0002b0 48 08 ac bb f5 71 71 3e 43 87 fd 3d 98 fc da be
       -0.0052500106 0.23578627 0.12379315 -0.4277084
0002c0 84 12 8b bc f7 f2 3c 3e c2 5f 9c 3d 76 5b 1e be
       -0.016976602 0.18452059 0.07635452 -0.15464577
0002d0 3d 9b 50 be c8 c0 aa bb 2b 28 a3 3e d3 80 89 bc
       -0.20371719 -0.0052109696 0.31866583 -0.016785061
0002e0 66 7b 5e be a5 fa 6e 3e 48 57 82 3d 0c 1f b5 bd
       -0.2172676 0.23337801 0.06364304 -0.08843812
0002f0 cd 03 34 be 45 d9 99 3d 42 49 39 3d a8 3d 88 be
       -0.17579575 0.07512144 0.04523588 -0.2660954
000300 d5 8b 08 3d e9 4c 4f 3e bb e1 c4 be 43 c9 20 3e
       0.03333648 0.20244183 -0.3845347 0.15701775
000310 06 4b 39 3e f5 f9 2b be 11 9b 4d 3b dd dd 72 3e
       0.18095025 -0.1679457 0.0031372944 0.23717447
000320 97 c5 5a be 70 c7 70 3e bf 0b e4 3c 41 91 26 be
       -0.21364437 0.2351358 0.027837632 -0.16266347
000330 cb 62 17 3d 29 63 16 bd da df 93 be 0b ed 06 bd
       0.03695945 -0.03671566 -0.28881723 -0.032940906
000340 28 95 50 3e 5e bc 9f be 7d d4 38 be 7a 6e 49 3e
       0.20369399 -0.311984 -0.18049808 0.1967105
000350 d2 84 5b bd 19 c1 d3 3d 8b 2c 8b 3e c2 64 26 3d
       -0.053593464 0.10339565 0.2718242 0.040623434
000360 94 3e 48 be e4 44 eb bd f4 75 1d bc eb 37 b4 be
       -0.19555122 -0.11487749 -0.009610642 -0.35198912
000370 c2 45 07 3e e6 74 9c 3e 73 01 dc bd d7 fe 7e 3e
       0.13210204 0.30557936 -0.10742464 0.24901901
000380 32 ee 69 3e c9 bf 2e 3e 91 c0 96 be 76 ac 7f bd
       0.2284477 0.17065348 -0.29443792 -0.06242033
000390 a7 ad 81 be 79 55 cd bd 1d 5a 1c 3d 6a 7d cd 3d
       -0.253278 -0.10026068 0.038171876 0.100336865
0003a0 92 a5 1b 3e 84 35 23 3e df 67 50 3e 17 8f 0e be
       0.15199879 0.15938383 0.20352124 -0.13921772
0003b0 94 6f 75 3d b0 dd da bc 1b 9f 0c 3c 18 f6 b8 bd
       0.059920862 -0.026717037 0.008582856 -0.09031314
0003c0 86 9d 76 be df 78 68 3d 6c b5 ef bd c7 7a 47 3e
       -0.24083528 0.056755897 -0.11704525 0.1948043
0003d0 e4 92 6e bd 59 b9 cf bd ef 17 7c 3e f7 d5 3e bd
       -0.058245555 -0.10142774 0.24618505 -0.04659077
0003e0 df 94 26 be 5e c8 65 3e 57 73 f7 bb 49 bf 87 be
       -0.16267727 0.22439715 -0.0075515914 -0.26513126
0003f0 a0 69 36 3d 86 63 cd 3d ce 20 2c bc 0f 68 55 3b
       0.044534326 0.10028748 -0.010505868 0.0032563244

features.0.bias f4 [32]
000000 67 f6 d6 3d 2f 53 bc bd df 9e 04 3e 25 8b 30 bd
       0.10496216 -0.091955535 0.1295123 -0.04310145
000010 36 ca 7c bb a5 2e 62 bd fb dd 8f bd ab 11 5c be
       -0.0038572676 -0.055220265 -0.07024761 -0.21491115
000020 c6 8e 7f be e0 73 3e be 8a 2e 1e 3e 3a 5f a8 bd
       -0.24956807 -0.1859889 0.1544744 -0.08221288
000030 bf 28 08 3e ce b2 ea 3d 10 82 97 be 16 eb 2f be
       0.13296793 0.114598855 -0.29591417 -0.17179522
000040 ec 38 a6 be 12 c8 31 3c a7 9f 75 bc 37 5c 2b 3e
       -0.32465303 0.010850923 -0.014991677 0.16734396
000050 5d 75 b5 bd 6c d8 68 be 81 97 cf 3d 85 7a 0c bd
       -0.08860276 -0.22738808 0.10136319 -0.03429653
000060 db 90 de 3d 6a 3d e2 bd 3c b6 fd bd 46 0e 0b 3d
       0.10867473 -0.1104687 -0.12388274 0.03394916
000070 78 03 17 3e b0 47 92 3c 84 32 91 be c0 4b 28 3e
       0.14747417 0.017856449 -0.28358853 0.16435146

features.1.weight f4 [32]
000000 8b 74 4f 3f 3b c0 8a 3f 52 39 53 3f a4 a7 66 3f
       0.81037205 1.0839914 0.8250934 0.9009955
000010 01 1a 60 3f 6e b1 63 3f 55 dd 8d 3f 92 3a 7e 3f
       0.8753968 0.8894261 1.108317 0.9930812
000020 b0 96 8b 3f 27 8f a0 3f be b5 4a 3f 6d 35 9c 3f
       1.0905361 1.2543687 0.79183567 1.2203804
000030 92 ea 89 3f 97 1b 95 3f fb 07 86 3f 3e 58 73 3f
       1.077471 1.1649045 1.0471185 0.9505652
000040 e6 16 6e 3f dd e7 71 3f f0 b4 5b 3f 4d a0 58 3f
       0.9300369 0.9449442 0.85822964 0.846196
000050 02 6d 83 3f 07 cf 9f 3f 17 1c 8e 3f 19 12 8d 3f
       1.0267642 1.2485055 1.1102322 1.1021148
000060 63 f1 53 3f 8e 5f 35 3f f3 5a 63 3f 70 e5 4d 3f
       0.827902 0.7084893 0.8881065 0.8042822
000070 1a ec 71 3f dd 9e 5d 3f dc 4f 31 3f 8c 1d 66 3f
       0.9450089 0.8657053 0.6926248 0.89888835

features.1.bias f4 [32]
000000 1c be 48 be c6 08 57 be 76 61 be be f0 1a 16 bd
       -0.19603771 -0.2099944 -0.37183732 -0.036646783
000010 85 17 32 3d 6f 22 f5 be a1 43 4b be 5c b1 97 3d
       0.04347946 -0.47877833 -0.19850017 0.074068755
000020 9e 47 b6 be ea b4 9a bd 66 10 11 bf 20 d7 c2 3d
       -0.35601515 -0.07554038 -0.5666565 0.09513688
000030 83 db ab bc 65 02 0b 3d d1 bf 8c be 58 e3 de be
       -0.020978695 0.03393783 -0.27490094 -0.43532825
000040 e8 d9 66 3d 09 eb dc be 0e ae 66 be a2 41 bc be
       0.056360155 -0.43148068 -0.22527334 -0.36768824
000050 31 8a 88 bd a0 bb 96 bd c1 9c 2a be 44 4e 00 3e
       -0.06666983 -0.073600054 -0.1666136 0.12529856
000060 fe 3e 17 be b8 ca b4 be a1 47 44 3b d0 27 79 bd
       -0.14770123 -0.35310912 0.002994992 -0.060828984
000070 5b 21 c9 be c8 7f 6f be 52 9a 60 be ee 01 54 bb
       -0.3928326 -0.23388588 -0.21933869 -0.0032349783

features.1.running_mean f4 [32]
000000 8e 81 ec 3d a9 e4 d7 bd df 2f 6e 3e c4 64 18 bd
       0.11548148 -0.1054166 0.23260449 -0.037205473
000010 9c b0 77 bc ce 06 04 be ac 85 14 bd f1 61 6b be
       -0.015117791 -0.12893221 -0.036260292 -0.2298658
000020 c0 dc 56 be 1c f3 3f be 9b 3b 9d 3c b3 87 b1 bd
       -0.20982647 -0.18745083 0.019193461 -0.08668461
000030 97 3d 1b 3e ea d1 c5 3d b5 47 95 be 55 f3 28 be
       0.15160213 0.096591786 -0.2915627 -0.16499074
000040 ed 1a 9d be 90 ce 59 3e af 41 5d bd e5 98 65 3e
       -0.30684605 0.21270204 -0.05401772 0.22421606
000050 27 16 d7 bd f5 d3 76 be 65 07 c6 3d a7 7f 1c bd
       -0.10502272 -0.24104293 0.09669379 -0.038207676
000060 2f ab d5 3d b4 78 8b be ac ac 0b be ef 8a 2b 3d
       0.10433041 -0.27240527 -0.13640088 0.041880544
000070 02 12 3f 3e 97 21 c9 3a 4a a7 bb be c7 4f 4b 3e
       0.18659213 0.0015345094 -0.3665107 0.19854651

features.1.running_var f4 [32]
000000 11 c7 50 3e 83 44 39 3e 40 2d 5c 3e 14 f7 c0 3d
       0.20388438 0.18092541 0.21501637 0.094221264
000010 45 3f e1 3d 80 76 2a 3e 12 ee 9a 3d 40 bc 7e 3e
       0.10998396 0.16646767 0.075649396 0.24876499
000020 0a 0c f9 3d de 2f 8b 3e 7b ca f9 3e 24 fd 02 3d
       0.121604994 0.27184957 0.48787293 0.031979695
000030 38 2a ea 3d 95 31 5b 3e 23 42 b4 3c 09 e2 20 3d
       0.11433834 0.21405633 0.022004193 0.039278064
000040 34 86 ab 3d 86 43 3b 3f ed 40 35 3e 7a f4 30 3e
       0.083752066 0.7314991 0.17700548 0.1728076
000050 47 1a 23 3e 49 0e 65 3d 0e 1e 3c 3e 61 0b 8c 3d
       0.15927993 0.055921827 0.1837084 0.06838108
000060 62 ba 3e 3c c4 c7 fe 3e 46 66 5f 3e d9 aa a0 3d
       0.011641117 0.49761784 0.21816358 0.078450866
000070 3a 7b d6 3d ce 5e cc 3d d1 2d 0b 3e ed 49 d2 3d
       0.10472722 0.0997902 0.13591696 0.102680065

features.4.weight f4 [64, 32, 3, 3]
000000 0e 1a 58 3c bb 4b aa 3e 01 aa bd 3e aa 71 f3 bd
       0.013189806 0.33260903 0.37043765 -0.11886914
000010 d2 e3 42 bd 8d 4f 03 be 41 26 0d 3d 7f 56 34 bd
       -0.047580548 -0.12823315 0.03446031 -0.0440278
000020 63 69 bf 3d 2e 12 06 be a2 4f 4e bc c3 3a 06 bd
       0.09346273 -0.13092873 -0.012592228 -0.032770883
000030 cb ff 82 3c 62 41 ae 3c 69 8a 22 bd 6c 7c 0c be
       0.015991112 0.021271411 -0.03968278 -0.13719338
000040 ea 37 d2 3c ab 96 25 3e d8 dc 70 bc 95 1a 1b be
       0.025661428 0.16170757 -0.014701091 -0.15146859
000050 d1 17 f6 bd f5 f9 20 be c7 96 08 3e 39 b5 06 be
       -0.12016261 -0.15720351 0.13338767 -0.13155068
000060 94 b2 48 be c7 6c ae bd fd f1 ca bb a6 4a 39 bd
       -0.19599372 -0.085168414 -0.006193398 -0.045237206
000070 f5 3a be be 7c 85 7a be 89 7d 6b 3c 84 7d 02 be
       -0.37154356 -0.24464983 0.014373192 -0.12743193
000080 20 d9 32 3e ad 0a 34 3e 3f f9 17 3c 87 a0 5f 3e
       0.17465639 0.17582197 0.0092757335 0.2183858
000090 85 9e 2b be c4 08 60 bd 1b f4 87 bd c2 94 72 bd
       -0.16759689 -0.05469586 -0.06638356 -0.059223898
0000a0 26 8f 00 bd b7 0e 6d be 93 62 62 3e 0e 8f 30 3e
       -0.031386517 -0.23150145 0.22107916 0.17242071
0000b0 48 50 e3 3d 0b de fc 3c 23 3a a9 bc 15 c6 ed 3d
       0.11099297 0.030867597 -0.020657605 0.11610047
0000c0 12 c4 0c be 4f 2f 6d bd 41 6a 5a bd 9d 41 cc bc
       -0.1374667 -0.057906445 -0.053323988 -0.02493363
0000d0 55 2b 57 be 22 c0 93 bc a7 b2 b7 bd 5d 46 1b be
       -0.21012624 -0.018035952 -0.08969622 -0.1516356
0000e0 48 b7 3b bd d1 1c 90 be 03 97 16 3e e1 b2 cf 3c
       -0.045829087 -0.28146985 0.14706044 0.02535385
0000f0 bb 42 86 be 21 44 1f 3e ea ce b4 3c ac 92 5a be
       -0.26222786 0.15553333 0.02207132 -0.21345013
000100 74 95 a6 bd a3 ce f8 bd 08 65 10 bd 50 01 ff 3d
       -0.08133975 -0.12148788 -0.0352526 0.12451422
000110 22 c8 87 3d 91 4a 79 3e 7c 8c ab 3d 1a cc 37 3e
       0.06629969 0.24344851 0.08376405 0.17948952
000120 e0 bc e5 bc a4 06 9d bd c7 18 79 be fb b1 01 3e
       -0.028044164 -0.07667282 -0.24325858 0.1266555
000130 5e 68 e3 bd d5 e6 c0 be 6f fd 0a bc fe 60 0e be
       -0.11103891 -0.3767611 -0.008483275 -0.13904187
000140 25 ee 94 bd 09 9e cb bd de ad 5d bd c0 71 70 3b
       -0.07271985 -0.09942252 -0.05412089 0.0036688894
000150 d9 72 cf 3c 89 f6 9d 3d f0 af 3d 3d c4 86 8b 3e
       0.025323318 0.077130385 0.046310365 0.27251256
000160 bd 74 86 ba 81 bc ed 3d 8a 49 22 be da a0 fe bc
       -0.0010258179 0.1160822 -0.15848365 -0.03108256
000170 0c f4 91 bc b4 03 40 be 2e 84 b0 bd bd 75 68 3d
       -0.017816566 -0.18751413 -0.08618961 0.05675291
000180 82 9c 07 be 4c a7 81 be 20 09 bf be 16 43 60 bb
       -0.13243297 -0.2532295 -0.3731165 -0.0034219674
000190 f3 7d fb bc bb ce a4 3b 76 c4 78 bd e6 13 cd 3d
       -0.030699706 0.005029527 -0.060734235 0.10013561
0001a0 f7 cd 51 3c 12 50 80 be 4c 0e 43 bc 70 82 fd 3d
       0.0128054535 -0.2506109 -0.011905264 0.123783946
0001b0 59 b5 ab bd 1f 19 2c 3e e8 cc 85 bd 3e 65 af bd
       -0.08384199 0.16806458 -0.065332234 -0.08564232
0001c0 60 a4 f3 3d 89 72 43 bd 47 1e 6f be a2 b4 cb bd
       0.118965864 -0.04771665 -0.23351394 -0.09946562
0001d0 72 c6 80 bd 92 0c 15 be 2d 6e f3 bc 24 2d 98 3d
       -0.062878504 -0.14555576 -0.029715622 0.07430485
0001e0 9c a1 9f be 78 4d 1b be fb ad 36 be 21 37 d9 bd
       -0.31177986 -0.1516627 -0.17839806 -0.10606218
0001f0 bf 1a 20 3d 7c 26 e3 3c 14 98 9d 3c ad 72 aa bd
       0.039088007 0.027728312 0.019237556 -0.08322654
000200 59 36 7f 3e e7 6a 1e 3e 80 78 27 be 57 1b c4 3d
       0.24923076 0.15470468 -0.16354561 0.09575527
000210 ba 8e d6 3e 73 12 3a 3b 5e 92 96 be d5 80 71 bc
       0.41905767 0.0028392344 -0.29408544 -0.014740189
000220 6a ff c2 3d f1 4d 12 be 41 fb 2f 3d 2b 31 f4 ba
       0.095213726 -0.14287545 0.042964224 -0.0018630376
000230 15 94 ab 3a 07 44 6e 3c ef 6c 8c 3d 67 b6 3d 3e
       0.0013090397 0.014542586 0.06856715 0.18526612
000240 9d 88 8b 3d 01 b3 d6 3d d1 9d 5a be 93 ae 1f 3e
       0.06813166 0.10483361 -0.21349265 0.15593939
000250 52 ac d8 3c 7b 20 8a 3e 5b 2b 0f 3e 36 11 dd 3c
       0.026449356 0.26977906 0.13981383 0.026985746
000260 82 d2 10 3e 03 45 fc 3d f6 3a e3 bd bf 31 8a bd
       0.14142802 0.123178504 -0.1109523 -0.067477696
000270 26 60 b0 bd b9 74 49 be 8a 41 d5 bd e7 1a e3 bd
       -0.08612089 -0.19673432 -0.10412891 -0.110891156
000280 74 b6 7c be 74 ed f2 bd cd c9 5e 3d d6 80 93 3d
       -0.24678975 -0.11861697 0.05439167 0.07202308
000290 f4 0a 7c 3e 33 7d a9 bd fa a2 85 bd 9b a7 f9 3c
       0.24613553 -0.08275833 -0.06525226 0.030475428
0002a0 32 f2 1e bc 3f 40 8f bd 1d 4f 49 bd c8 f5 50 bb
       -0.009701299 -0.06994676 -0.049147714 -0.0031884778
0002b0 62 ee c1 bd 6f 1c a0 3d d7 a6 92 3c 95 bb 1a be
       -0.09469296 0.07817923 0.017901821 -0.1511062
0002c0 82 b8 57 be 9c 4c 78 3e 75 45 06 bd 26 fa 37 be
       -0.21066478 0.24247974 -0.032781083 -0.17966518
0002d0 ca e4 20 3d c9 bb 36 3d a1 74 89 be 16 e3 01 3d
       0.03928069 0.04461268 -0.26846793 0.031710707
0002e0 ad 05 af bd 53 77 06 be 62 ea 4d bd ae 3e 87 bd
       -0.085460044 -0.13131456 -0.050272353 -0.06603752
0002f0 8d 4c 68 bd 96 93 9a 3d b3 18 d3 3d 9c 7f 12 3e
       -0.05671363 0.07547681 0.103074454 0.14306492
000300 1f d9 69 3d ef b8 d3 3d 76 65 28 3e 15 2f e0 bd
       0.05709183 0.10338008 0.16444954 -0.1094648
000310 b8 97 84 3d 4a bf fd 3d 50 29 fb bd 81 d0 41 be
       0.064742506 0.12390001 -0.12263739 -0.18927194
000320 2b 4a 2e 3e 93 84 2d be 49 29 d2 bc 8b c9 39 3e
       0.1702048 -0.16945104 -0.025654452 0.18143289
000330 dc 7a 7a 3d 4e eb 56 3d 3b b5 22 3e fa 14 94 bd
       0.061152324 0.052470498 0.15889446 -0.072305635
000340 2d f6 96 3d cd 26 25 3d 4a a3 19 3e 5f 16 23 3e
       0.07371173 0.040320206 0.15003696 0.15926503
000350 da 0a a7 3d 34 b6 85 3e fd 1e 4d 3e b0 89 73 bd
       0.08156367 0.26115572 0.20031352 -0.05945748
000360 5e 5f 1a 3e ed a6 c0 be d5 bd 0a 3e 42 c2 99 3e
       0.15075442 -0.37627354 0.13548978 0.3003102
000370 49 97 37 be 91 ca dc 3d 43 c6 89 3e 4a 2e 59 be
       -0.17928804 0.10780824 0.26909074 -0.21209064
000380 4a ec fc 3c 2b 66 1e 3e 7d a3 c3 3d 66 70 dc 3d
       0.03087439 0.15468661 0.09552667 0.10763626
000390 bc 01 21 bc b8 57 0f be 24 ec 86 bd 86 55 1e be
       -0.009827074 -0.13998306 -0.06588009 -0.15462312
0003a0 2e f6 8e be 51 8e a9 3c fa 3a eb bd 36 b5 1f 3d
       -0.27922195 0.020697745 -0.11485858 0.038991176
0003b0 2b 0a 67 3d a6 e4 40 be 15 a0 95 bd 3f ec 0e 3e
       0.05640618 -0.18837222 -0.07305924 0.13957308
0003c0 68 70 ae be 16 c3 37 be 33 26 cb 3c f5 ed 63 bd
       -0.34070134 -0.17945513 0.024798488 -0.055646855
0003d0 fd f7 2a bc c6 93 46 3d fa 20 cc 3d 96 b7 38 be
       -0.010435102 0.04848077 0.09967227 -0.18038782
0003e0 b8 72 b1 bc ff b6 ce 3e 32 fc ea bc 62 94 d9 bb
       -0.021661147 0.4037399 -0.02868471 -0.006640003
0003f0 5f f5 e7 3d c0 88 1f 3d e4 95 cf bc 39 71 ec bd
       0.11326098 0.038948774 -0.025340028 -0.11545033

features.4.bias f4 [64]
000000 ee b3 a7 bc 7e 0a db bc 35 69 aa bb d8 f5 92 bb
       -0.02047154 -0.026738402 -0.00520053 -0.0044848733
000010 3b 80 4e bd 21 7f 2c 3c 05 37 9d 3d d8 d4 f4 bc
       -0.05041526 0.010528357 0.0767651 -0.029886648
000020 42 85 e1 bc 81 df 81 3d b3 6a 04 3b b1 6f c5 bb
       -0.027529363 0.06341458 0.00202052 -0.0060252775
000030 af 1b 25 bd c5 f6 d5 3c e1 fb c6 3c c5 b3 74 bb
       -0.040309604 0.026118645 0.024290027 -0.0037338596
000040 e3 61 03 bd 0c 17 97 bd 4e 7b 1b 3d 2b f8 05 be
       -0.032075774 -0.07377443 0.03795939 -0.1308295
000050 47 df 0b 3c 4b ff 6c bd 21 18 1d 3d 13 a4 19 3c
       0.00853712 -0.057860654 0.03835309 0.009377497
000060 ea 79 ca bb 7e 68 4f 3d a7 15 7d 3d 3a 90 71 3d
       -0.006179084 0.05063676 0.061788227 0.058975436
000070 51 5e 89 3d 3a d0 8f 3d 3a a7 7a 3d e2 8f 8b bb
       0.067074426 0.07022138 0.061194636 -0.0042590955
000080 92 f4 70 3c 74 11 94 bc ea 50 c5 bc 34 e5 91 3d
       0.014706748 -0.018074729 -0.024086434 0.07123795
000090 c4 c3 7e 3b 9b 20 7c bc 4c 4d 78 3d 45 cc 66 bc
       0.003887401 -0.015388633 0.06062059 -0.014086788
0000a0 a9 27 8b 3c 7d d5 6c bc 1f fd 6a ba c8 1e c8 bc
       0.016986685 -0.014455196 -0.00089641096 -0.02442874
0000b0 46 01 02 bd a1 8c 56 bd ce 59 b5 bd 8a f1 63 3d
       -0.031739496 -0.052380208 -0.088550195 0.05565027
0000c0 00 63 f2 3b c2 de 20 3d 50 3b bb bc 47 71 c2 3d
       0.0073970556 0.03927494 -0.02285543 0.09494262
0000d0 47 b0 a9 bd ab dc 0b bd e8 e1 1f 3c 25 9c ae bd
       -0.08285575 -0.034145992 0.00975845 -0.08525876
0000e0 cf b7 be 3c 84 ac bf bd dd 68 93 bc a1 45 97 3d
       0.023281006 -0.093590766 -0.017994339 0.073863275
0000f0 62 eb c2 bc a5 b9 17 bd 95 c1 1d 3d 89 1b 3c 3d
       -0.02379388 -0.03704228 0.038514692 0.045924697

features.5.weight f4 [64]
000000 8e ca 52 3f 14 03 80 3f a8 ee 6e 3f 1f 69 83 3f
       0.82340324 1.0000939 0.9333291 1.0266455
000010 62 94 80 3f b3 28 64 3f 02 63 27 3f 9f 1f 81 3f
       1.0045283 0.891246 0.6538545 1.0087775
000020 d4 d1 5b 3f 32 79 4c 3f 9b 2b 77 3f 2d 56 39 3f
       0.8586705 0.7987243 0.9655091 0.7239712
000030 3f b0 95 3f 4f 22 76 3f 67 79 84 3f 39 b0 46 3f
       1.1694411 0.961461 1.0349549 0.77612644
000040 21 5b 5c 3f 9a 8b 4b 3f a0 03 68 3f 9a 87 61 3f
       0.8607655 0.7950989 0.9063053 0.88097537
000050 42 c7 84 3f 16 4b 5d 3f 2d 5e 7c 3f f1 4a 4e 3f
       1.0373309 0.864427 0.985812 0.805831
000060 9c 92 4e 3f 76 4c 4c 3f 01 73 46 3f d9 c0 6e 3f
       0.8069246 0.7980417 0.7751923 0.9326301
000070 34 e0 45 3f 50 b2 85 3f 49 62 46 3f ba 65 58 3f
       0.7729523 1.0445042 0.7749372 0.8453022
000080 fe 11 63 3f 62 13 73 3f 1f 58 7d 3f d8 bb 6c 3f
       0.8869933 0.9495145 0.9896259 0.92474127
000090 d4 f2 69 3f 85 ce 45 3f 9a 0b 4d 3f 57 e7 59 3f
       0.9138615 0.7726825 0.8009583 0.8511862
0000a0 11 27 7d 3f 2b 61 7e 3f 3e d1 7b 3f a3 f9 84 3f
       0.98887736 0.99367017 0.98366153 1.0388683
0000b0 6b b1 6e 3f 86 5e 63 3f 4c 1c 5b 3f 3d 0a 90 3f
       0.9323947 0.88816106 0.8559005 1.1253124
0000c0 0f 0c 81 3f b4 17 65 3f bb b9 6a 3f be 63 73 3f
       1.0081805 0.89489293 0.9168965 0.9507407
0000d0 25 7d 7e 3f 60 10 6f 3f 4f 07 5d 3f 52 b4 5c 3f
       0.99409705 0.9338436 0.8633928 0.86212647
0000e0 85 b6 55 3f c8 69 67 3f 4a c5 76 3f 6a f5 60 3f
       0.8348163 0.90395784 0.9639479 0.8787447
0000f0 da 8b 62 3f ce c1 7c 3f 1e 1e 43 3f 5a 1a 87 3f
       0.88494647 0.9873322 0.7621783 1.0554917

features.5.bias f4 [64]
000000 4c 93 0e bf a1 03 f9 be f9 10 03 bf 1a c1 0a bf
       -0.5569351 -0.4863558 -0.51197773 -0.542009
000010 49 d7 1b bf 5b 9a 00 bf 27 46 b0 be bf f0 0c bf
       -0.60875374 -0.5023553 -0.34428522 -0.5505485
000020 08 fb f2 be 23 16 b6 be e0 c0 26 bf 0a 22 05 bf
       -0.47457147 -0.35563764 -0.65138054 -0.52005064
000030 7b db 1f bf 8b 1d 1f bf 27 ff 01 bf 9f 74 17 bf
       -0.62444276 -0.62154454 -0.50779957 -0.59162325
000040 47 c4 dc be 0b 7c ae be 9e af 08 bf 7b b3 ed be
       -0.43118498 -0.34079012 -0.5339297 -0.46425995
000050 d3 fa f6 be 52 e0 34 bf e2 ef 10 bf 72 89 08 bf
       -0.4823824 -0.70654786 -0.5661603 -0.53334725
000060 7b 66 0b bf 92 72 ff be 1c cc e8 be 63 9f e0 be
       -0.5445325 -0.49892098 -0.45468223 -0.43871602
000070 c9 52 db be 7d 40 10 bf 0d 93 d7 be a5 76 02 bf
       -0.42836598 -0.563484 -0.42104378 -0.5096229
000080 da 51 00 bf 98 ac 02 bf 0a 7c 03 bf ef de f7 be
       -0.50124896 -0.5104461 -0.51361144 -0.48412272
000090 e2 46 d7 be c3 a6 ca be 73 e0 d9 be ba d1 f0 be
       -0.42046267 -0.39580354 -0.42554054 -0.4703501
0000a0 0e 81 3c bf c2 40 02 bf 5e 34 1f bf fe fd 29 bf
       -0.7363442 -0.5088006 -0.6218928 -0.66403186
0000b0 6f 1b 25 bf 33 3b 09 bf 02 64 0f bf a5 64 25 bf
       -0.64494985 -0.53605956 -0.56011975 -0.64606696
0000c0 0e 69 f3 be 97 d5 d0 be 87 4a 03 bf 0a f2 fa be
       -0.47541088 -0.40787956 -0.51285595 -0.49012786
0000d0 40 8f f4 be ec 0a ff be 53 b3 02 bf ee aa e6 be
       -0.4776554 -0.4981302 -0.5105488 -0.45052284
0000e0 5e b6 d7 be 81 8c f5 be a0 6a 19 bf ff 07 df be
       -0.42131323 -0.47958758 -0.5992832 -0.43560788
0000f0 13 ba f3 be 0f c7 1f bf 49 af 00 bf 31 fd 16 bf
       -0.476029 -0.62413114 -0.50267464 -0.5898009

features.5.running_mean f4 [64]
000000 5b bc 28 bf de 2c 1b c0 50 ad 3d c0 d6 44 8a c0
       -0.6591241 -2.4246135 -2.9637032 -4.320903
000010 0e 45 15 c0 77 53 bc bf c9 97 7f 3f 94 ee 75 c0
       -2.3323398 -1.4712971 0.9984098 -3.8426867
000020 6c 28 1e c0 f5 d6 f0 bf 47 23 25 c0 87 9c d8 bd
       -2.4712172 -1.88156 -2.5802782 -0.1057673
000030 15 1a 3b c0 85 cb 1e c0 52 5a a8 c0 7e ea 30 bf
       -2.923467 -2.4811718 -5.2610254 -0.69107807
000040 a6 73 24 c0 23 6f 32 c0 e2 6d 88 bf 6e ea 08 c0
       -2.5695586 -2.7880332 -1.0658534 -2.1393085
000050 a0 c8 7d c0 8c 95 e8 bf e2 80 fc bf 2e 84 85 3d
       -3.9653702 -1.8170638 -1.9726832 0.06519352
000060 2f 82 b3 bf 6a ca 82 bf 9c d5 d9 bf 70 1f f7 bf
       -1.4024104 -1.0218022 -1.7018313 -1.9306469
000070 cc a6 96 bf 0c 74 70 c0 33 3c f9 bf a9 53 2c c0
       -1.1769652 -3.757083 -1.9471496 -2.6926062
000080 9f 72 a3 c0 07 d8 2f c0 b1 9e 44 c0 a5 bd 63 c0
       -5.107742 -2.7475603 -3.0721858 -3.55845
000090 63 4d 05 c0 89 0a 13 c0 e4 f2 8b be 87 2c 94 bf
       -2.0828483 -2.297518 -0.27333748 -1.1576089
0000a0 d4 f4 cf bf c3 33 87 c0 51 7e 71 c0 ee d5 51 c0
       -1.6246591 -4.2250686 -3.7733347 -3.2786822
0000b0 c2 f8 e3 bf bb c3 a1 bf ba 9e 14 c0 85 3c 11 c0
       -1.781029 -1.2637857 -2.322188 -2.2693188
0000c0 fc 9a 97 c0 08 25 c9 bf 84 17 17 c0 a9 11 1f c0
       -4.737669 -1.5714426 -2.3608103 -2.485453
0000d0 89 56 2c c0 3a c3 51 c0 bf 06 02 c0 41 76 44 c0
       -2.6927817 -3.2775407 -2.0316617 -3.0697176
0000e0 c4 29 24 c0 b0 08 46 c0 e1 b0 0a c0 d9 7b 24 c0
       -2.5650492 -3.0942802 -2.1670458 -2.570059
0000f0 85 3b bb bf 79 3a 38 c0 7a 6e 50 bf 4a 41 56 c0
       -1.4627539 -2.878569 -0.81418574 -3.347735

features.5.running_var f4 [64]
000000 64 ef 54 40 62 c0 10 41 58 c7 16 41 15 2e 75 41
       3.3271112 9.046968 9.423668 15.3237505
000010 05 95 c4 40 ed f9 c3 40 fd 45 c3 40 3d de 57 41
       6.143191 6.1242585 6.1022935 13.491757
000020 a9 2c 2a 41 09 a8 8b 40 08 5d ca 40 87 d8 82 40
       10.635903 4.364262 6.3238564 4.0889316
000030 5c c9 d8 40 d8 31 bc 40 3d 50 63 41 e2 b6 99 40
       6.77458 5.8810844 14.207089 4.8035746
000040 4b 38 b5 40 b3 fe a2 40 b9 d4 ce 40 0f f8 83 40
       5.6631217 5.093591 6.463467 4.1240306
000050 f9 a2 5d 41 39 18 68 40 86 06 9d 40 93 85 99 40
       13.852288 3.6264784 4.9070463 4.7975554
000060 f8 c2 9b 40 cd 74 c2 40 13 be 0b 41 c3 dc a2 40
       4.86755 6.076758 8.733905 5.0894485
000070 66 14 ae 40 de e2 1c 41 fb cc cb 40 8a f1 e3 40
       5.43999 9.8053875 6.368772 7.1232347
000080 44 e4 80 41 0b 2f bf 40 9b 9f db 40 9c 3c 13 41
       16.111458 5.9744925 6.863233 9.202297
000090 f0 b4 fe 40 db 91 b7 40 e9 11 a7 40 8d 02 e0 40
       7.959587 5.7365546 5.2209363 7.0003114
0000a0 5b 03 78 40 b6 b1 44 41 5d 63 4a 41 28 d7 2d 41
       3.8752048 12.293386 12.649259 10.865028
0000b0 00 fb ab 40 e4 a4 ec 40 b3 ed c7 40 af f9 8a 40
       5.3743896 7.3951283 6.247766 4.342979
0000c0 76 f6 4e 41 e1 40 1e 41 87 41 b0 40 56 0a d8 40
       12.935171 9.89084 5.507999 6.7512617
0000d0 5d 5d 1b 41 bf 0d 88 41 e0 e0 83 40 f9 15 07 41
       9.710294 17.006712 4.1212006 8.442864
0000e0 45 4d ef 40 bb ff d0 40 fb 6e 0c 41 2a 0c 15 41
       7.4781823 6.531217 8.777095 9.31547
0000f0 5c ef 9a 40 15 be 03 41 c4 36 b9 40 c7 fb 00 41
       4.8417187 8.233907 5.7879353 8.061469

features.8.weight f4 [128, 64, 3, 3]
000000 7a a7 43 be d8 70 0a be bf 3f bb be 69 a9 23 3e
       -0.19106856 -0.13519609 -0.36572072 0.15982594
000010 b6 25 93 3c aa f5 6c be 64 46 20 3e 9c 68 a1 3d
       0.017962318 -0.23140588 0.15651852 0.07881281
000020 5b 13 03 3e 76 d6 8a 3d 5c 76 c8 bd 7f 9f 1b be
       0.12800352 0.067791864 -0.097882 -0.15197562
000030 1c 1e 24 be 03 e1 25 be 57 0b f1 bd 73 ce 0f 3e
       -0.16027111 -0.16199116 -0.11769741 0.14043598
000040 c7 8a 7e bd 90 82 13 3e 64 31 47 3d c9 f6 47 bd
       -0.062144067 0.14405274 0.048631087 -0.048819337
000050 4e a5 0f bd 3f 37 86 3d c5 55 a2 3d 12 59 f9 bd
       -0.035069756 0.06553506 0.079265155 -0.12175192
000060 79 e1 bf 3c 9f 09 73 be 28 c8 46 be b9 c8 1d be
       0.023422943 -0.23734139 -0.19412291 -0.15408601
000070 d1 7d 6e bd e1 3d 5d 3e 51 25 af ba bf ad 16 be
       -0.058225457 0.21605636 -0.0013362562 -0.14714716
000080 2b c5 64 be 69 f4 8b bc 27 5e 0a be 27 bd 52 be
       -0.22340839 -0.017084317 -0.13512479 -0.20579968
000090 18 aa 17 3c 66 7f 5a 3d 10 bc 30 be ef 53 92 3d
       0.009256862 0.053344153 -0.1725924 0.07144915
0000a0 0c 6d 8b 3c f1 92 85 3d cd 49 8a bd d6 3a 4a 3d
       0.017019771 0.065221675 -0.06752358 0.049372517
0000b0 54 3a 5c 3d 7c 09 16 3d af 00 47 3e 04 d0 d8 3d
       0.053766564 0.03663014 0.19433855 0.10586551
0000c0 d0 0f 7e bd bb 9a 4c be ce b7 88 be f3 d1 c2 3d
       -0.0620268 -0.199809 -0.26702732 0.09512701
0000d0 bb 56 83 3d 6b 60 25 bb 00 bf 0a 3e d9 93 cf 3d
       0.06413027 -0.0025234472 0.13549423 0.101356216
0000e0 18 31 49 3e d6 83 8d bd 06 91 dd bd 17 36 15 be
       0.19647634 -0.06909911 -0.10818677 -0.14571415
0000f0 81 11 16 3d 6f ba cd bc 75 25 3a bd e7 b7 c5 3c
       0.036637787 -0.025113313 -0.045445878 0.024135543
000100 51 f2 13 3d 6f 93 99 3d 21 cf 05 be ea de 65 bd
       0.036119763 0.07498824 -0.13067295 -0.05612079
000110 57 54 23 3d 45 5d a3 3c bc b5 d6 bd ba a0 ea bd
       0.039875355 0.019941935 -0.10483882 -0.114564374
000120 33 53 b2 3d d0 c0 bf 3d 9e 59 9f bd cb 45 83 bd
       0.08707275 0.09362948 -0.07780765 -0.06409796
000130 e2 db 08 3e f7 99 99 3d f0 ac 15 3b 23 6e 81 3d
       0.13365129 0.075000696 0.0022838674 0.06319835
000140 a0 5b 5e be 38 ed c6 3d 13 aa 1f bd 5d 96 32 3e
       -0.2171464 0.09713215 -0.038980555 0.17440172
000150 e3 a4 04 bd 09 e1 77 3d ff 27 bb 3c 68 3f 11 bd
       -0.03238381 0.060517345 0.02284622 -0.03546086
000160 de 37 3c 3e 92 77 8f bc 58 71 a4 be 5a 55 27 bd
       0.18380687 -0.01751307 -0.32117724 -0.040852882
000170 c9 7a 39 3d 67 83 ea 3d 33 c0 61 3e 58 e6 78 3e
       0.045283113 0.11450844 0.22045974 0.24306619
000180 75 fe 3d bc c8 5f 0b 3e 18 bd fc 3d 91 31 85 3e
       -0.011596312 0.13610756 0.12340754 0.2601438
000190 c7 3d 21 be db a1 2b 3d 1b 9b 2b 3d d4 dd c3 3b
       -0.15746222 0.041902404 0.041895967 0.0059773717
0001a0 b9 f0 5f bd a7 90 a4 bd 2c 38 c0 3c b7 c2 ba 3d
       -0.05467293 -0.08035403 0.023464285 0.0911917
0001b0 4e 15 01 bd c5 e7 9e bd cc b3 79 be 28 89 64 be
       -0.03151446 -0.0775905 -0.24384993 -0.22317946
0001c0 b6 13 54 3b 4f a0 ad bb 2e 33 71 3e 30 b5 67 3c
       0.0032360381 -0.0052986513 0.2355468 0.01414232
0001d0 70 ed 7f 3d 32 93 f8 3d 26 51 2b bd bc d5 06 be
       0.062482297 0.1213745 -0.041825436 -0.1316747
0001e0 ec 8d 82 3d 34 1e 93 3d 7d c2 0b be 9d d8 a0 bd
       0.06374726 0.07183495 -0.1364841 -0.07853816
0001f0 68 32 25 3e 09 43 bb 3d 05 cd bf 3d e5 05 62 3b
       0.1613251 0.09143645 0.09365276 0.0034488377
000200 67 9a 7d 3d 45 21 67 bd de 65 99 be f0 b7 17 be
       0.061914828 -0.056428213 -0.2996053 -0.1481626
000210 e8 a4 0f 3e 9c 24 8d 3d 79 d2 7e 3d 87 a9 03 3e
       0.1402775 0.06891748 0.06221244 0.12857638
000220 83 08 08 3b f8 22 32 bd ff 5f 27 be c6 b9 2d bd
       0.0020757027 -0.04349038 -0.16345213 -0.042413495
000230 ac 9d fa 3d 2c 87 15 be 90 54 28 be 3b d6 46 bc
       0.12237105 -0.14602345 -0.16438508 -0.012136037
000240 c3 32 2e 3e d4 c8 e7 bb 7c b8 96 be 9c ef 46 3e
       0.17011552 -0.007073501 -0.29437625 0.19427341
000250 36 5b 87 3d e7 9b 88 3d 4d 7c b2 bb 3f 6f 23 bd
       0.06609194 0.06670361 -0.0054469467 -0.039901014
000260 ff ae 8e 3d 0f f3 11 be 90 90 d2 bc 96 84 d1 3d
       0.069669716 -0.14252876 -0.025703698 0.10230367
000270 41 6f 00 3e f7 2c 46 bd 3d 8d 24 be d3 34 23 3e
       0.1254244 -0.048382726 -0.16069503 0.1593812
000280 3a 7d 8e 3c 65 15 3f 3d 0f 52 59 bb fe 42 85 bc
       0.017393697 0.046651263 -0.0033160483 -0.016267296
000290 f3 58 5e 3d 60 ba 66 3d 34 43 57 be 5c 7a 8e 3c
       0.054284047 0.056330085 -0.2102173 0.01739233
0002a0 f6 ce 96 bd e4 7d 2b be 19 73 3e 3c 2a 2f 23 3e
       -0.073636934 -0.16747242 0.011624121 0.1593596
0002b0 fe aa c1 bd 22 2c 45 3e 9f f4 66 3e e1 16 3c bd
       -0.09456442 0.19255117 0.22554253 -0.045920257
0002c0 db a3 93 be e9 4c 56 3e d8 1c 39 bd 67 da 51 be
       -0.2883595 0.20927776 -0.045193523 -0.2049347
0002d0 a7 b4 56 3d f1 5f 80 3e 62 d3 da 3d 1e 0d 78 be
       0.052418377 0.25073197 0.10684849 -0.24223754
0002e0 15 b1 88 be 5b a8 ca 3c 8e 4d 56 bd 31 81 3b be
       -0.26697603 0.024738481 -0.052320056 -0.18311001
0002f0 7f 84 30 3d 55 12 17 3e 73 e8 39 3d ef 16 39 3e
       0.043095108 0.14753087 0.045387696 0.18075155
000300 9c c7 81 3c ae 2d 4d 3e 9d 7f 08 3e 35 ca 3a 3d
       0.015842251 0.20036957 0.1332993 0.045602996
000310 7d 94 a6 bd f5 ec f2 bd 0d 38 c4 bd 87 ce 85 be
       -0.08133791 -0.11861602 -0.09581003 -0.2613413
000320 77 5c 3e bd 92 9d 17 bd 65 8b 04 bd 2b 51 41 be
       -0.0464749 -0.037015505 -0.0323595 -0.1887862
000330 f8 3a 0d be e5 6e a7 3d ef c7 2b bd 2a 2b dd bb
       -0.13792026 0.08175448 -0.04193872 -0.0067495303
000340 9d 09 81 bd cb 36 06 bd ad e5 b3 3d 03 6d 43 be
       -0.06300662 -0.0327671 0.087840416 -0.19084553
000350 dc 30 ac bd 03 92 22 be f4 7c 0e be d5 a3 aa 3c
       -0.08407757 -0.15876012 -0.13914853 0.020830074
000360 64 56 33 be dd 49 9c bd 23 a9 2f be 68 56 bc bd
       -0.17513424 -0.07631276 -0.17154364 -0.09196168
000370 ac da e3 bd da d8 8d bd 89 98 e1 bd 31 8e cd 3d
       -0.11125693 -0.06926127 -0.11015422 0.100368865
000380 18 29 f3 3c 62 bb 53 3e 29 6d 93 bd 47 fd 58 3e
       0.029682681 0.2067695 -0.07198555 0.21190368
000390 07 b1 43 be 20 14 08 be cd 24 92 bd 22 ff 84 be
       -0.191105 -0.13288927 -0.071359254 -0.259759
0003a0 45 5e d7 bd ed 72 13 be c5 80 8d bd d3 bd 1e be
       -0.10516027 -0.1439931 -0.069093265 -0.155021
0003b0 1c 63 a4 bd 17 e1 23 3d 8e 83 9d be 2b 6d 9e be
       -0.08026716 0.040009584 -0.3076443 -0.30942664
0003c0 cd 68 a2 3c da 35 6b be fd 34 6f bd 5b b6 12 be
       0.019825364 -0.22969761 -0.058400143 -0.14327376
0003d0 2d 63 a3 3d 55 01 81 bd 3a b2 ad be d1 00 9e be
       0.07977901 -0.06299082 -0.3392504 -0.30859998
0003e0 ed 44 8d bd 7e c8 fd bc 8f 42 14 3b 8a 16 43 3d
       -0.06897912 -0.030979391 0.002262268 0.047628917
0003f0 0b c9 94 bd d6 72 39 3d c2 7a 16 be e1 ea a4 3b
       -0.072649084 0.04527553 -0.14695266 0.0050328826

features.8.bias f4 [128]
000000 14 26 d6 3c 0b 5d f2 bb d6 26 96 3c f9 c6 3f 3d
       0.026141204 -0.0073963455 0.018329065 0.046820614
000010 35 48 01 bd 3e 08 95 3c 2c e6 92 3c 7d 23 a2 bb
       -0.031563003 0.018192407 0.01793202 -0.004948078
000020 04 20 a7 3c 98 b0 43 bc 5e 17 9d bc d2 8d 68 3b
       0.020401008 -0.011943959 -0.019176181 0.0035484922
000030 f3 a8 0c bd d9 b8 77 3c c9 bd 31 3c e3 9d ac 3c
       -0.03434081 0.015119755 0.010848471 0.02107138
000040 37 78 7f 3b f5 a9 a1 3c d7 46 10 bd 0b 7c 2d bd
       0.0038981566 0.019734362 -0.03522381 -0.042354625
000050 07 73 39 3c f0 c9 72 3b 54 28 00 3d 46 98 a6 ba
       0.011318929 0.0037046634 0.03128846 -0.0012710176
000060 b5 06 cb 3c 5a b9 4b 3d 29 b5 c9 3c 0e e3 bf 3c
       0.024783472 0.049737312 0.024622517 0.023423698
000070 d4 d8 0c 3c 3a 07 22 bd 3b a4 00 3c 0f cd 89 bd
       0.008596618 -0.039557673 0.007851656 -0.06728565
000080 f7 5e f5 bc 20 55 54 3d fb 6c 52 ba e4 26 28 3d
       -0.02995251 0.051838994 -0.00080271036 0.041052714
000090 d9 48 d4 bc 19 f1 27 3d dc ac 5a 3c 33 7f fa 3c
       -0.025913643 0.041001413 0.013346877 0.030578231
0000a0 bb 19 de 3b ad 3f 24 bd 49 00 b6 3c 4f bc ba bc
       0.0067779697 -0.04009979 0.022216933 -0.02279487
0000b0 ce d5 89 3c 04 4c cb 3b ca 35 c6 bc 9d f0 a4 bb
       0.016825583 0.00620413 -0.02419557 -0.005033566
0000c0 83 18 d5 3c f2 84 4d 3d 71 35 f2 bc f7 8f 39 3d
       0.026012665 0.050175615 -0.029566498 0.04530331
0000d0 07 74 ac 3c a6 1a f8 3b 51 71 4f 3d 4e 1f 07 3a
       0.02105142 0.007571536 0.050645176 0.0005154506
0000e0 68 41 05 3c 14 4b 0c 3c c7 3d b8 3c d3 e0 86 bb
       0.00813327 0.008562822 0.022490395 -0.0041161566
0000f0 2f 83 2a bc 8e 5c 1a bc 34 b8 1a bc 04 20 9b bc
       -0.010407253 -0.009421481 -0.0094433315 -0.018936165
000100 6d 39 d2 bc c1 73 39 bc 5a 58 60 3b d5 53 55 bc
       -0.025662148 -0.011319102 0.003423235 -0.013020475
000110 29 6f 2c bd b5 09 84 3c d6 c3 f2 3c 2c 36 09 bd
       -0.042098198 0.01611791 0.029634397 -0.033498928
000120 46 57 0f 3c c7 57 65 3d bd e5 75 3d 41 38 dc 3a
       0.008748835 0.055991914 0.06003355 0.0016801433
000130 16 bd 6d bc 5d 21 e3 bc f4 a9 f6 3b 82 ea a1 bc
       -0.014510414 -0.02772587 0.007527584 -0.019765142
000140 87 c4 88 3c 4b 11 60 ba 6a 31 26 3d 9c 95 b4 3c
       0.016695274 -0.0008547499 0.04057447 0.022043996
000150 47 e6 cb 3c 25 c3 31 3d 61 b4 f2 3c 33 b7 2b bd
       0.024890078 0.043398995 0.029627027 -0.04192276
000160 87 e2 93 bb 62 28 92 bb b9 46 ca 3c c1 ee d2 bc
       -0.004513088 -0.0044603804 0.024691926 -0.025748612
000170 a8 ce 9f 3c dd 8f c3 bb 89 ef 19 3d a6 db 03 3c
       0.019507721 -0.0059680776 0.037581954 0.008047974
000180 ec b2 62 3d a2 99 4a 3d 38 ac 09 3c e3 b1 52 ba
       0.055346414 0.049462922 0.008402877 -0.00080373714
000190 af 47 d2 bc 26 53 60 3c 33 c9 b4 bb 45 d5 03 bd
       -0.025668947 0.013691699 -0.005517149 -0.03218581
0001a0 95 35 00 bc 82 87 3a 3d 9b 72 c3 3c 13 41 28 3b
       -0.007825275 0.045539387 0.02385836 0.0025673553
0001b0 1f 0d b9 bc a7 c8 87 3c 23 05 df 3c 9e 11 85 bc
       -0.022589264 0.01657517 0.027224129 -0.016243752
0001c0 07 36 96 3b eb 77 26 3d e6 f1 31 3d c1 a2 f5 ba
       0.0045840773 0.040641706 0.043443583 -0.0018740521
0001d0 50 a5 35 bd 74 d6 76 bc 16 b8 39 bd 10 97 ce bc
       -0.044347107 -0.015065778 -0.045341574 -0.025218517
0001e0 c8 06 b3 bc bb f8 b0 bc 90 6f 9d 3c 78 3d b6 bc
       -0.02185382 -0.021602979 0.019218236 -0.022246107
0001f0 25 8e 2d 3d 0f 29 b5 bb ff 06 ad 3c b8 15 76 bc
       0.042371888 -0.005528576 0.0211215 -0.015019827

features.9.weight f4 [128]
000000 4d fe 60 3f fd 4b 60 3f 8d 53 5e 3f ba 7a 68 3f
       0.8788803 0.8761595 0.8684624 0.90812266
000010 2c 1c 66 3f 4a 0d 76 3f a8 8b 64 3f 59 b7 74 3f
       0.89886737 0.9611403 0.892756 0.95592266
000020 7d 1a 6c 3f da 80 4d 3f d1 c3 5f 3f 2a c0 4c 3f
       0.9222792 0.80274737 0.8740817 0.7998072
000030 a7 2f 69 3f ff 02 67 3f 9f 5f 4f 3f 64 76 73 3f
       0.91088337 0.90238947 0.8100528 0.95102525
000040 2a f5 55 3f 8b 70 5a 3f 92 82 5e 3f 31 b3 63 3f
       0.83577216 0.85327977 0.86917984 0.889453
000050 dc 3a 69 3f 3f 0f 70 3f b7 dc 7d 3f 74 c8 7a 3f
       0.9110544 0.93773264 0.9916491 0.9796212
000060 e3 1b 55 3f c6 6d 51 3f 0b 43 61 3f a9 a9 74 3f
       0.83245677 0.81808126 0.87992924 0.9557138
000070 d1 59 5a 3f 69 49 67 3f c3 14 70 3f 71 48 68 3f
       0.852933 0.9034639 0.9378168 0.90735537
000080 3d 7c 4f 3f ff 42 73 3f d4 a1 5e 3f 13 45 5d 3f
       0.8104895 0.950241 0.8696568 0.86433524
000090 a8 2d 7e 3f 0b b8 52 3f 19 b9 58 3f 49 e1 65 3f
       0.99288416 0.8231208 0.84657437 0.8979688
0000a0 52 de 58 3f 49 73 53 3f 1d c0 59 3f da 92 72 3f
       0.84714234 0.82597786 0.85058767 0.9475533
0000b0 d0 73 5c 3f c7 d2 65 3f d1 63 5c 3f 63 7d 55 3f
       0.86114216 0.89774746 0.8608981 0.8339445
0000c0 a0 8f 5c 3f e6 fe 7b 3f 67 fd 72 3f 53 d2 57 3f
       0.86156654 0.9843582 0.9491791 0.84305304
0000d0 8b 84 70 3f ba bb 5f 3f 5b e5 67 3f 8d 16 56 3f
       0.93952245 0.87395823 0.90584344 0.8362816
0000e0 0d 47 58 3f 8c 75 65 3f 45 8b 6e 3f 79 01 76 3f
       0.84483415 0.8963249 0.9318126 0.96096
0000f0 1e 3c 7e 3f 60 6a 61 3f ed c7 5c 3f 0a 3e 75 3f
       0.9931048 0.8805294 0.8624256 0.9579779
000100 a2 74 61 3f ff 25 63 3f 1b 4b 5c 3f 46 36 4f 3f
       0.8806859 0.8872985 0.860521 0.8094219
000110 e8 b0 63 3f f3 d6 61 3f dc 8b 5b 3f 7e a2 71 3f
       0.8894181 0.8821861 0.85760283 0.9438857
000120 e7 9c 7a 3f ec ad 80 3f bd a2 52 3f 3b e2 6d 3f
       0.97895664 1.0053077 0.8227957 0.92923325
000130 29 eb 5d 3f 0a 4e 59 3f c8 f5 66 3f 95 72 64 3f
       0.8668695 0.84884703 0.9021878 0.8923734
000140 c9 1b 64 3f c8 8c 5b 3f 45 23 81 3f 8d c8 5a 3f
       0.89104897 0.8576169 1.0088888 0.85462266
000150 40 21 63 3f 3e 99 5b 3f ab 2a 71 3f dd d1 61 3f
       0.8872261 0.85780704 0.9420573 0.8821085
000160 62 3a 54 3f 9a 94 61 3f ae f7 6e 3f b1 44 65 3f
       0.82901585 0.88117373 0.9334668 0.8955794
000170 74 11 57 3f d7 6a 51 3f 3f 27 79 3f 28 d5 5b 3f
       0.84011006 0.8180365 0.9732551 0.85872126
000180 1a f5 53 3f c2 a2 5d 3f 66 5d 72 3f a5 12 6a 3f
       0.8279587 0.86576474 0.94673765 0.914347
000190 02 5d 71 3f d2 2c 54 3f 05 cf 66 3f 93 ab 80 3f
       0.94282544 0.8288089 0.90159637 1.005236
0001a0 48 5d 6e 3f a6 84 64 3f 83 ef 52 3f d7 00 5e 3f
       0.93111086 0.89264905 0.82396716 0.8672003
0001b0 07 5d 61 3f f4 5d 50 3f a6 d3 57 3f 27 8f 52 3f
       0.88032573 0.8139336 0.84307325 0.82249683
0001c0 35 19 79 3f 40 33 68 3f 13 1f 65 3f 26 93 5c 3f
       0.9730409 0.907032 0.8950054 0.8616203
0001d0 c9 4d 62 3f 90 8b 62 3f e0 3d 59 3f fc 86 51 3f
       0.8839994 0.88494205 0.8486004 0.81846595
0001e0 68 78 68 3f 17 30 5c 3f 21 c0 8b 3f 60 ff 58 3f
       0.90808725 0.8601088 1.0918008 0.8476467
0001f0 0b 8d 69 3f 1c 57 71 3f ed ad 56 3f da 45 82 3f
       0.9123084 0.94273543 0.8385914 1.0177567

features.9.bias f4 [128]
000000 ff 54 2a bf 53 30 40 bf d2 ca 54 bf bb 1c 72 bf
       -0.66535944 -0.75073737 -0.8312198 -0.9457509
000010 d2 31 37 bf 89 04 46 bf fc 5a 42 bf d9 0f 5e bf
       -0.71560395 -0.7735067 -0.7592008 -0.8674293
000020 ec 2a 43 bf 73 93 48 bf 91 15 60 bf ad 8a 42 bf
       -0.7623737 -0.7834999 -0.8753291 -0.7599285
000030 74 81 59 bf d5 9c 6b bf 6c 67 2f bf 6d 02 53 bf
       -0.84963155 -0.9203618 -0.68517184 -0.82425576
000040 45 40 51 bf d0 27 4d bf 1d b3 51 bf 6c dd 49 bf
       -0.8173869 -0.80138874 -0.8191393 -0.7885349
000050 da 58 2c bf 7a 12 72 bf 39 d7 41 bf 95 cb 76 bf
       -0.67323077 -0.94559443 -0.7571903 -0.9640439
000060 8c 0a 48 bf 3a 4e 3e bf 96 e8 42 bf 10 5b 4f bf
       -0.78141093 -0.74338114 -0.7613615 -0.80998325
000070 00 4c 35 bf d2 84 58 bf 69 3a 4a bf 5a 89 71 bf
       -0.7081909 -0.8457767 -0.78995377 -0.94350207
000080 7b 77 6b bf e0 37 47 bf 29 07 40 bf 09 48 54 bf
       -0.9197919 -0.77819633 -0.75010926 -0.82922417
000090 8f a7 60 bf 57 95 4a bf 97 a2 48 bf a0 1d 41 bf
       -0.87755674 -0.79134125 -0.7837309 -0.7543583
0000a0 f2 a5 66 bf c7 77 69 bf f9 ed 3c bf 25 9f 4f bf
       -0.9009696 -0.9119839 -0.7380062 -0.8110221
0000b0 39 b0 5c bf 83 7f 22 bf 11 1f 45 bf 28 14 29 bf
       -0.86206394 -0.6347582 -0.7700053 -0.6604638
0000c0 38 48 2e bf 6f 26 54 bf cf 56 48 bf 18 ba 4d bf
       -0.6807895 -0.82871145 -0.7825746 -0.8036208
0000d0 da 07 78 bf 85 c7 4e bf e6 21 47 bf 68 28 36 bf
       -0.9688698 -0.8077319 -0.777861 -0.71155405
0000e0 c7 e4 39 bf 32 cc 52 bf 66 81 58 bf a9 d5 58 bf
       -0.7261471 -0.8234283 -0.84572446 -0.8470102
0000f0 42 53 76 bf 24 b6 42 bf 3e f3 32 bf e2 51 71 bf
       -0.9622079 -0.76059175 -0.6990241 -0.9426557
000100 cf 06 3b bf ed a6 4f bf bb bc 3d bf 3a 72 4b bf
       -0.73057264 -0.81114084 -0.74116105 -0.7947117
000110 77 0a 66 bf be 27 3c bf 91 20 3b bf 77 53 78 bf
       -0.8985972 -0.7349814 -0.7309657 -0.9700236
000120 9f ab 60 bf 49 ea 74 bf 5c c6 3b bf 15 56 56 bf
       -0.87761873 -0.9566999 -0.7334955 -0.837251
000130 f2 22 54 bf 0c 80 58 bf e6 4e 50 bf 76 6d 29 bf
       -0.8286582 -0.84570384 -0.8137039 -0.6618265
000140 41 1d 4b bf 54 64 56 bf 67 4c 48 bf 9d ea 50 bf
       -0.7934151 -0.8374684 -0.7824158 -0.8160799
000150 8f ae 3b bf 0c 84 54 bf 88 d1 39 bf da 9a 64 bf
       -0.7331323 -0.8301399 -0.72585344 -0.89298785
000160 4f c2 49 bf 81 10 42 bf d9 0e 6d bf 48 93 56 bf
       -0.78812116 -0.7580643 -0.9260078 -0.83818483
000170 70 4b 51 bf be 72 51 bf 3e eb 2e bf ce 85 3c bf
       -0.81755733 -0.8181571 -0.683277 -0.7364167
000180 1d db 51 bf 0e 21 53 bf de 32 56 bf e3 ae 58 bf
       -0.81974965 -0.8247231 -0.8367137 -0.84641856
000190 f8 b5 64 bf 2d eb 3b bf 54 33 48 bf f5 4a 67 bf
       -0.8934016 -0.73405725 -0.7820332 -0.9034875
0001a0 ac bc 54 bf 38 93 54 bf 61 af 4f bf e1 80 3b bf
       -0.8310039 -0.8303714 -0.8112698 -0.7324353
0001b0 64 c1 4a bf d5 cd 2b bf e8 7d 4f bf a1 e6 3f bf
       -0.7920134 -0.6711095 -0.8105149 -0.74961287
0001c0 27 27 7f bf 04 53 46 bf 51 7c 4c bf f9 41 51 bf
       -0.99669117 -0.7747042 -0.7987719 -0.8174129
0001d0 51 e4 53 bf 80 e0 81 bf 7d 50 5c bf 4d 4a 45 bf
       -0.8277026 -1.0146637 -0.86060315 -0.770665
0001e0 0c 3a 60 bf 02 fc 5b bf b8 90 81 bf 86 39 54 bf
       -0.8758857 -0.8593141 -1.012229 -0.82900274
0001f0 b7 64 48 bf 50 7f 78 bf ed 32 4c bf 7d 9e 62 bf
       -0.7827868 -0.97069263 -0.79765207 -0.88523084

features.9.running_mean f4 [128]
000000 8c 31 c2 bf c3 6b ee be 8d bd 0f bf b0 fb 7b bf
       -1.517137 -0.4656659 -0.56148607 -0.9843092
000010 75 57 fe bf b0 21 b0 be cf 7a a9 bf 82 4a f2 bf
       -1.987044 -0.34400702 -1.3240603 -1.8928988
000020 34 cb c5 be 7a 7e 11 bf 23 49 81 bd f1 ff 86 be
       -0.38631594 -0.5683361 -0.06312778 -0.26367143
000030 50 3e 2e bf 62 bb 59 bf b9 65 a5 bf 40 e6 19 c0
       -0.6806383 -0.8505155 -1.2921668 -2.4046783
000040 ac e8 f6 bf c3 f7 12 3e 56 b0 15 bf 9a 76 aa bf
       -1.9289756 0.14352326 -0.5847219 -1.3317444
000050 7e 10 56 bf 72 43 d8 be 21 59 d0 bf ec ad 6e bf
       -0.83618915 -0.42238957 -1.62772 -0.93234134
000060 c3 73 96 bf 76 75 2b c0 e0 7b 9d bf b3 75 0f c0
       -1.1754078 -2.6790442 -1.2303429 -2.2415588
000070 16 9f 97 bf c5 bd 12 c0 39 ff 21 c0 6a 90 5d bf
       -1.1845424 -2.2928326 -2.5312026 -0.86548483
000080 e6 25 86 be b1 89 77 bd 28 19 e9 bf 48 aa 45 bf
       -0.2620079 -0.060434047 -1.8210802 -0.77212954
000090 8f 70 d3 bf 04 ce 84 3e e9 98 26 c0 cf 3e a1 bf
       -1.6518725 0.25938427 -2.603083 -1.2597293
0000a0 52 8d 7a bf 38 32 a4 bf 0d 03 70 bf b1 85 4a bf
       -0.9787189 -1.2827826 -0.93754655 -0.79110247
0000b0 7d a7 f8 be a7 d2 18 c0 79 81 2b bf ea 38 e8 bf
       -0.48565283 -2.3878572 -0.66994435 -1.8142369
0000c0 b0 83 c9 bf 1c d6 e7 bf 3d 92 a6 bf 7d 87 dc be
       -1.5743313 -1.8112216 -1.3013378 -0.4307212
0000d0 43 b1 e4 bf 33 57 72 bf 32 7f af bf 89 4d 2c c0
       -1.7866596 -0.94664305 -1.3710692 -2.6922324
0000e0 79 58 57 bf 01 2e 86 bf a3 66 e5 bf f1 5e 11 c0
       -0.84119374 -1.0482789 -1.7921947 -2.2714198
0000f0 07 35 2f be 52 91 63 bf 12 9a 30 bf dd 29 67 bf
       -0.17110072 -0.88893616 -0.6898509 -0.90298253
000100 3e 6d 1b c0 ec c4 6b bf a4 fb d8 3c 01 ce 14 bf
       -2.4285426 -0.92097354 0.02648718 -0.58126837
000110 b2 63 15 bf bb 21 10 bf 41 b9 b7 3e f2 1a 85 bf
       -0.5835525 -0.5630147 0.35883525 -1.0398848
000120 66 42 ac be d5 4d cf bf 4c 38 c3 bf 6a e2 53 bf
       -0.33644408 -1.6195627 -1.5251555 -0.82767355
000130 8f 23 df bf 71 04 1c bf 79 c3 97 bf af c9 0e bf
       -1.7432727 -0.6094428 -1.1856529 -0.55776495
000140 1b d4 9e bf 92 77 5f bf ac 25 de bf 61 92 de bf
       -1.240848 -0.87291825 -1.7355247 -1.7388421
000150 c9 99 d0 bf 65 b4 2d bf 0a 92 c5 bf 82 fc 13 bf
       -1.6296932 -0.67853385 -1.5435193 -0.5780717
000160 02 1e bf bf 18 9c b5 bf 01 3c 91 bf 54 b6 53 bf
       -1.4931033 -1.4188261 -1.1346437 -0.82700086
000170 71 b6 c3 be 74 93 1b c0 05 46 e9 bf af 8f 1f c0
       -0.3822513 -2.4308748 -1.8224493 -2.4931448
000180 c4 e8 dc be d2 f9 ab bf 48 4e 7a bf c3 93 1a c0
       -0.43146336 -1.3435614 -0.977757 -2.4152687
000190 b3 36 9a bf b4 b8 13 bf db 4a 9b bf 37 3b c7 bf
       -1.2047943 -0.5770371 -1.2132219 -1.5564946
0001a0 a6 ca b1 bf ee e8 de bf 88 bc 9c bf 66 28 4d bf
       -1.3889968 -1.7414834 -1.2245035 -0.8013977
0001b0 d0 f9 1f c0 21 84 8b be be 11 77 bf 9f b4 58 bf
       -2.4996223 -0.27249244 -0.9651145 -0.84650606
0001c0 97 99 a9 bf 60 66 23 c0 3a 12 d8 bf 08 48 08 bf
       -1.3249997 -2.5531235 -1.6880562 -0.5323491
0001d0 5b de e2 bf b2 c7 c9 bf 3e 1d 84 bf bc 3c ef bf
       -1.7724108 -1.5764067 -1.0321424 -1.869041
0001e0 93 e3 e1 bf b1 82 60 bf b7 15 87 bf 3d 1b 09 c0
       -1.7647575 -0.8769942 -1.0553502 -2.1422875
0001f0 c5 f3 50 bf 23 e4 9e bf 30 79 e9 bf 0f 49 c4 bf
       -0.8162196 -1.2413372 -1.8240108 -1.5334796
